PPO_weights/PPO.pth (torch_old, 49450 bytes, 11 tensors)

actor.0.weight f4 [64, 25]
000000 d2 ed 1e 3e 91 18 8c be b5 97 7c bd 90 e3 03 3e
       0.15520409 -0.27362493 -0.061668117 0.12879777
000010 f2 6a a0 bd ab a0 86 3d ea e3 5b bd 1f bd 0f 3e
       -0.07832898 0.06573614 -0.053684153 0.14036988
000020 26 65 e2 3d d1 df 28 bd b1 24 a0 bb 47 17 1f 3e
       0.11054449 -0.041229073 -0.0048871865 0.15536223
000030 06 9f f5 bd 59 6a 3f be 92 6f 06 3d 05 b4 22 ba
       -0.11993222 -0.18692912 0.032821245 -0.00062066346
000040 77 40 4c 3d 4e d7 1d 3e b8 1f c5 3d 03 da be 3d
       0.049866166 0.15414163 0.096251905 0.09318926
000050 e3 26 05 bd 22 69 5a 3d 74 41 8c 3d fa ca 39 3d
       -0.03250779 0.05332292 0.06848422 0.04535959
000060 dc 9c e7 3b f7 c7 64 bd 77 25 88 bd cb 5a 1f 3e
       0.0070682596 -0.055854764 -0.06647771 0.15561979
000070 fa 3a 3e 3b 9f d3 e8 3d 56 8a 16 be 8f ad ed bb
       0.0029026852 0.113684885 -0.14701208 -0.007253356
000080 41 58 3a be ba 0f 02 be 7b 21 2a 3e be 45 09 be
       -0.18197729 -0.12701312 0.16614334 -0.13405511
000090 c4 a8 95 bc 55 05 46 3e 74 8e 05 bd 0f 08 f1 3d
       -0.01826895 0.19337972 -0.032606557 0.11769115
0000a0 34 7b 09 bd c3 02 19 be 34 06 28 bd 9d 39 3a be
       -0.03356476 -0.1494246 -0.04102154 -0.1818604
0000b0 8d 96 06 3e 17 5d 2d 3e 7c d2 09 3d 4b 1c 51 3e
       0.13143368 0.16930042 0.033648 0.20420949
0000c0 cd 9b bb 3d 79 51 04 3e 3f cb b3 bd cb e2 43 3e
       0.09160576 0.12921704 -0.087790005 0.19129483
0000d0 43 7c 84 bd 03 e8 cd bd 13 fc 13 3e ac cf 31 3e
       -0.064690135 -0.10054018 0.14451627 0.17364377
0000e0 27 a9 f0 3a 25 6d 0a be 0d e2 a4 3c 12 f7 87 3d
       0.0018360958 -0.13518198 0.02012732 0.06638922
0000f0 e0 f2 ce bd 90 87 8c 3d cc 42 e3 bd 8e 5d 70 bd
       -0.101049185 0.06861794 -0.11096725 -0.05868297
000100 4c d9 89 3d d0 71 60 3d 18 0e 28 bd 5c fa 39 be
       0.06730899 0.05479604 -0.041029066 -0.18161911
000110 dd 4d 6a bd 2d 87 7c bd 16 b7 89 3d 49 d9 76 bd
       -0.057203162 -0.06165235 0.06724374 -0.060265813
000120 98 f2 eb bd bb ab 24 3d ee 4e 47 3e 4b bd 60 bd
       -0.115208805 0.040202837 0.19463703 -0.054868024
000130 73 ed 45 3e 87 59 15 be 1e ed 4a bd b7 b1 0a be
       0.19328861 -0.14584933 -0.04954254 -0.13544355
000140 b4 ac e4 bd a2 7b bf 3d ac 8e 7f bc 9f 1d 30 3e
       -0.11165753 0.09349753 -0.0155979805 0.171988
000150 8b d0 58 3e c0 84 19 bd be 3d 0c 3e dd cb 1e 3d
       0.21173303 -0.037480116 0.13695428 0.038768638
000160 5e d1 97 3d a9 ad df bd 98 e8 4e be 5e f1 e6 3d
       0.074129805 -0.10921795 -0.20205915 0.11276506
000170 f3 d1 44 3d 90 54 32 bd 86 36 75 bd 72 76 1b be
       0.048051786 -0.043537676 -0.05986645 -0.15181902
000180 1a 6b f6 bd 0b 7e e5 3d e1 5b df bd c5 43 b7 3d
       -0.12032147 0.112056814 -0.109061964 0.08948473
000190 49 9e 8f 3d 32 0b 25 be d5 a3 8f 3d b7 b4 b9 3b
       0.070126124 -0.16117552 0.0701367 0.005667295
0001a0 d9 f0 35 3e 7c 59 06 3e 85 c8 12 be ed 03 d8 bd
       0.17767657 0.13120073 -0.14334305 -0.10547624
0001b0 0f 30 13 be 77 8a 54 3e 1a c0 92 3d ad 7c 06 be
       -0.14373802 0.20755945 0.07165547 -0.13133498
0001c0 bd 81 f2 bd 24 a2 d9 bd 27 1a 04 bc 80 0f d4 3d
       -0.11841152 -0.10626629 -0.008062876 0.10354519
0001d0 8d 2b e4 3d 02 77 09 bd 76 d4 54 3e e6 a9 9b 3d
       0.11141119 -0.03356076 0.20784172 0.07600765
0001e0 a3 21 0e bd 48 61 08 be d3 f3 f4 bb 40 d3 0f be
       -0.034700047 -0.1331836 -0.007475355 -0.14045429
0001f0 00 f9 30 3e e0 a8 61 3e 79 f7 83 3e 7b 34 50 bc
       0.17282486 0.22037077 0.25774744 -0.012707825
000200 64 93 a1 bc 4f fd 2d be b8 34 14 bd 94 67 20 3e
       -0.019723602 -0.16991161 -0.03618309 0.15664512
000210 8d 67 1a be 9a fe 23 bc 32 06 53 3e 27 56 fd 3a
       -0.15078564 -0.010009432 0.20607832 0.0019328044
000220 f4 cd 30 3e c0 b5 d2 3d 41 b7 9a 3d 91 33 b0 bd
       0.17266065 0.10288572 0.07554484 -0.086035855
000230 84 2a 9d 3d 37 2b d3 bd 21 b2 52 bc 3c 27 b3 3d
       0.07674125 -0.10310977 -0.012859852 0.08747718
000240 e0 58 48 3d 97 77 0b be 52 5d 23 be e1 5d 6b bd
       0.048912883 -0.13619839 -0.15953568 -0.057462577
000250 cb 78 84 bd d9 f8 fe 3c a3 d3 6c bd c7 9a 59 bd
       -0.06468352 0.03112452 -0.05781902 -0.053126123
000260 b3 32 14 bc e1 25 d2 3d b2 c1 1c be be 94 bc bd
       -0.009045291 0.10261131 -0.15308264 -0.09208058
000270 e7 68 94 3c 73 8a db bc fb 48 e9 3d 5a a8 ba 3a
       0.018116428 -0.026799416 0.11390873 0.0014240847
000280 a0 5e 33 bc e3 3b 3a 3e ec 14 19 3d fb e4 5f bd
       -0.010947853 0.18186907 0.03737347 -0.054661732
000290 98 f6 cc 3d 1e 17 54 3d e1 d0 71 be 0a 68 0b be
       0.100079715 0.05177986 -0.23614837 -0.13613907
0002a0 4f 30 b7 bd 66 21 bc 3d 40 15 90 3d b9 d7 91 3d
       -0.08944761 0.09186058 0.07035303 0.07121224
0002b0 17 a8 ad 3d ce 98 07 be 74 41 f4 bd 01 0e 89 3d
       0.08479326 -0.13241884 -0.11926547 0.06692124
0002c0 1b 45 6d 3d da 1e fb bd 32 5a fa bd e7 29 63 3d
       0.057927232 -0.12261744 -0.12224235 0.055459883
0002d0 92 72 78 bb f2 67 cf 3d d9 29 d5 3c 60 36 22 be
       -0.0037910086 0.10127248 0.026020931 -0.15841055
0002e0 82 9f 56 be f0 f2 38 bd b3 50 02 3e e0 cb 0c bd
       -0.20959285 -0.04515356 0.12726097 -0.034374118
0002f0 38 20 22 3d 23 e8 1c 3e f9 4f 27 3e 43 c7 1c 3e
       0.039581507 0.15322928 0.16339101 0.15310387
000300 27 ca 46 bd ad 5f 83 bc 3c 2d 8f bd de 53 f0 bd
       -0.04853263 -0.016036833 -0.0699105 -0.117347464
000310 3e e8 51 bd 60 e8 1e 3c 99 0c 08 3e d1 79 1b 3e
       -0.051246874 0.009698957 0.13286056 0.15183188
000320 e6 10 c7 3c cb 3e e6 bd aa 6c 41 3c c8 6a 72 3e
       0.02430005 -0.112424456 0.011805693 0.23673546
000330 cf 9c 13 3d c4 84 50 3d a7 51 e5 bd 3b d5 be bc
       0.036038216 0.050907865 -0.111972146 -0.023295036
000340 35 e3 4d bd 43 6d 50 3e d9 e3 7f 3d a2 80 92 bc
       -0.05026551 0.2035418 0.06247315 -0.017883603
000350 d6 e8 b0 bd e2 40 bc bc ae 32 20 be 48 01 aa bc
       -0.0863816 -0.022980157 -0.15644333 -0.020752564
000360 be fe c0 bd 11 66 1d be 0f 15 97 3d 0f 38 7f bd
       -0.09423588 -0.15370966 0.073770635 -0.06230932
000370 4d 31 f4 bd b3 ac 52 3d 72 03 d0 3d 54 91 43 3e
       -0.11923466 0.05143423 0.10156907 0.19098407
000380 41 2c e4 3d c6 22 07 be a3 23 81 3e eb 1b 19 be
       0.11141253 -0.13196859 0.252225 -0.14952056
000390 dd 25 22 bd 86 76 62 3e 37 db 5e bd 33 45 0c be
       -0.03958689 0.22115526 -0.05440828 -0.13698272
0003a0 86 9a 12 3d dd 1d 2d be 01 12 1d 3e 67 94 44 3d
       0.035791896 -0.16905923 0.15338899 0.04799309
0003b0 54 0b a1 3c b4 2d 01 3d 05 0d 25 3e 7d 88 1c 3d
       0.019658722 0.031537727 0.16118248 0.038216103
0003c0 c6 9c 57 3d 5c d2 24 be 80 14 3c be fc 5a 4c be
       0.052639745 -0.1609587 -0.18367195 -0.19956583
0003d0 45 ca 05 be 33 37 fe 3c 6b bc 12 bc dc d7 94 3d
       -0.13065441 0.03103218 -0.008956055 0.072677344
0003e0 dd a0 9e bd 62 58 08 3e bd 84 37 bd 38 2b a9 3d
       -0.07745526 0.13314965 -0.044804323 0.082601964
0003f0 96 4e 68 3d f3 f9 6a bd 78 ec 25 3b 90 bb 9b bd
       0.05671557 -0.057367276 0.0025317948 -0.07604134

actor.0.bias f4 [64]
000000 41 d6 61 bd 40 af 1d 3d 9d db 8e bd 2f ee 38 3d
       -0.05513597 0.03849721 -0.06975482 0.045149025
000010 5b 13 2b be 3e bb ec bc 0b 2f 44 3e 32 e0 d7 bd
       -0.16706602 -0.028897878 0.1915857 -0.10540809
000020 23 34 cc bd 1d 0d 93 bd e1 fb 5b 3d f9 45 12 be
       -0.09970882 -0.071802355 0.053707007 -0.14284505
000030 87 49 bd 3d 20 29 06 3e f7 bc 0e bd 9b 88 5c bd
       0.0924254 0.13101625 -0.03484818 -0.053841215
000040 cd c9 b4 3c 25 cd b7 3c 93 6b 37 3e 24 7e 45 bd
       0.022068882 0.022436688 0.1791213 -0.048216
000050 2e 5f ca 3d 4b 8b 78 bd 47 ba 2c bd 61 77 0e be
       0.09881435 -0.060679715 -0.042169835 -0.13912727
000060 68 2d dd bd e4 d2 f4 bd b2 92 e8 bc 1f fe f6 bd
       -0.10799676 -0.11954287 -0.028390262 -0.120601885
000070 ce cd 82 bd 24 cd ec 3c 70 ce ed bd c7 7b 75 bb
       -0.063869104 0.028906412 -0.116116405 -0.003745781
000080 e9 5c 22 3e dd 43 62 3d 9d 05 20 bb a2 21 ac bd
       0.15855755 0.0552405 -0.0024417408 -0.084048524
000090 0c de 89 3b 3f 72 32 bd d1 e4 51 be 4c 45 ca 3d
       0.0042073783 -0.043565985 -0.20497443 0.098764986
0000a0 57 e4 89 bd ec e9 00 be 81 36 de bc 48 8b 50 bc
       -0.067330055 -0.12589234 -0.027125599 -0.01272852
0000b0 72 1c 31 3d 5a 86 e2 3d ef ae 2c be c6 88 eb bd
       0.04324002 0.11060782 -0.16863607 -0.11500697
0000c0 fa d7 3a be b9 12 28 be d1 f3 a9 3d 25 fe 39 3e
       -0.18246451 -0.16413392 0.082984574 0.18163355
0000d0 e2 53 a5 3d d9 52 b7 3d f0 fd c7 bd 02 fe 05 be
       0.0807264 0.08951349 -0.097652316 -0.13085178
0000e0 45 72 7e 3d d1 0a fb bd 63 e3 2f bd 7b eb c4 3d
       0.062120695 -0.122579224 -0.042941462 0.09615227
0000f0 42 54 3f be a5 f0 99 3d fa 0f 6a bd a9 09 0b 3d
       -0.18684486 0.075166024 -0.057144143 0.03394476

actor.2.weight f4 [64, 64]
000000 84 fd 1a 3e 7d 96 06 be 9a 10 1d bd d5 f6 66 bc
       0.15135771 -0.13143344 -0.03834591 -0.014096935
000010 77 78 6b 3d 45 d3 cf bd aa 09 e4 3d 77 1c c1 bc
       0.05748793 -0.10147718 0.11134656 -0.023573143
000020 03 d0 e6 bc 58 74 df bd 51 6e 61 bd d3 a7 84 3e
       -0.02817536 -0.10910863 -0.055036847 0.2590929
000030 79 9d bf bd 59 b4 ae bd 73 5f 91 3d c8 64 0e 3d
       -0.093562074 -0.08530492 0.070982836 0.03476408
000040 b7 97 80 bc 89 93 d3 bd d2 10 a5 bd 2e 1a 93 3b
       -0.015697343 -0.103308745 -0.08059849 0.004489205
000050 16 32 2b 3e cb 5a b3 bd c5 95 9c 3c 6e c1 0a be
       0.16718325 -0.08757552 0.019114384 -0.1355035
000060 87 18 0c be 83 e7 62 3e 88 76 6c 3c c8 75 57 be
       -0.13681231 0.22158627 0.014432557 -0.21041024
000070 59 25 dd bd c1 a2 81 bd 26 ca 70 3d b0 a7 2d 3d
       -0.10798139 -0.06329871 0.058786534 0.042396247
000080 97 bc 46 3e ca aa be 3d 10 7d 94 3d 3b 5c 0e be
       0.19407879 0.09309919 0.07250416 -0.1390237
000090 9e 7f e0 bd 8b cc 78 3d f3 83 08 3e 99 99 5b 3d
       -0.10961841 0.060741942 0.13331585 0.05361328
0000a0 df e6 65 bb ec 1e d7 3d 29 82 9d 3b 9b 7f 2c 3c
       -0.0035080237 0.10503945 0.004806776 0.01052847
0000b0 b2 2c 3c be 1a 50 26 be 00 05 c4 bc 2d b4 bc bd
       -0.18376425 -0.16241494 -0.023928165 -0.09214053
0000c0 a9 ce d5 ba fe 8e 30 bd 51 13 82 bd 90 fc c5 bd
       -0.00163122 -0.043105118 -0.063513406 -0.09667313
0000d0 11 e4 99 3d 88 6d d4 bd 79 da 46 3a b3 a2 e7 bd
       0.07514203 -0.10372454 0.00075856555 -0.11310329
0000e0 5c 6f 8a bd ae 10 be bd 71 15 48 3d 49 a3 da bc
       -0.06759521 -0.09280525 0.048848573 -0.026689189
0000f0 a6 7e 4f 3d 65 e2 99 3d 13 81 9b 3d 3c e6 c0 bd
       0.05065789 0.075138845 0.07592978 -0.09418914
000100 7c 44 17 3d f2 ce c1 bd 04 cd 80 bd b3 e5 3d be
       0.036930546 -0.094633 -0.062891036 -0.18544655
000110 11 1e 23 3e 11 45 69 be 5e 65 cf bd 69 3d 10 be
       0.15929438 -0.22780253 -0.10126756 -0.14085926
000120 3d a1 ef 3d 80 b5 b9 bd 22 31 87 bb 46 d8 b0 3d
       0.11700676 -0.090678215 -0.00412573 0.08635001
000130 9d 4d fb bc 24 37 b9 bd 85 17 1e 3e 90 30 0b be
       -0.030676657 -0.0904372 0.1543866 -0.13592744
000140 13 d3 31 be 03 f5 2a 3d 5f e3 b1 bd f8 2f 8b bd
       -0.17365675 0.041737568 -0.08685946 -0.06796259
000150 36 b1 90 3d ae a8 b4 bd 7e 2d be bd 86 32 0d bd
       0.0706505 -0.088212356 -0.09286021 -0.03447201
000160 1a 0a f1 bd bb c5 8b 3b 4d e1 16 3d 09 e5 41 be
       -0.11769505 0.0042655147 0.036835957 -0.18935026
000170 7a b1 06 3e 10 69 22 3e 08 f5 c7 3d 90 70 0a bd
       0.1315364 0.1586039 0.09763533 -0.033798754
000180 b6 6f ed 3d a0 9c 16 3e f5 2f ae bb e0 22 b8 bd
       0.11593573 0.14708185 -0.0053157755 -0.08991027
000190 88 fe e0 bd 2a 2a bb bc 25 44 9e 3d 97 bb 04 bd
       -0.10986048 -0.022847254 0.07727841 -0.032405462
0001a0 11 6b 48 3d 55 28 a9 bd 97 9b a4 3d 2f 82 35 3e
       0.04893023 -0.08259646 0.08037489 0.17725442
0001b0 9d d8 b5 3c f2 a3 0d bc 1f 86 03 bb 77 43 90 bd
       0.022198016 -0.008645045 -0.0020068956 -0.07044118
0001c0 8b f6 2f 3e b5 14 cc 3d f5 76 ef bd 02 ae 7e 3d
       0.17183892 0.09964887 -0.11692611 0.062177666
0001d0 36 1c 92 bd 28 8d c6 3d 72 46 a2 3d ad 12 c4 3d
       -0.07134287 0.09694892 0.079235926 0.095738746
0001e0 8b ab 80 bd a3 a5 eb bc bf 1e 92 bc 28 f0 9b bd
       -0.06282719 -0.028765505 -0.017836927 -0.076141655
0001f0 56 5e 7e bc 1f 66 16 3c 16 fb 67 3d 91 7a 83 3d
       -0.015525421 0.009179621 0.05663594 0.06419862
000200 89 ec 1a bc d0 88 1b 3e 63 dc eb bd fa db 1c be
       -0.009455808 0.15188909 -0.11516645 -0.1531829
000210 23 01 41 bc 43 8e 91 3d 5e 73 b8 3d fc ff 08 3e
       -0.011780056 0.071072124 0.090063795 0.133789
000220 65 f0 96 3d ad 32 21 be 2e 37 b2 bc 29 2c b8 3d
       0.0737007 -0.15741988 -0.021754827 0.08992798
000230 77 e4 30 bd 39 75 78 bc 79 0a b8 3d bd 5c 0c bd
       -0.04318663 -0.015164667 0.089863725 -0.03426813
000240 02 cf 38 3d ad 09 d9 bd 9b 5a 3c be fa 68 27 bc
       0.045119293 -0.10597549 -0.18393938 -0.010217899
000250 d0 dc 06 3e de 44 9b 3d 5c 60 81 3d 19 5a ab 3c
       0.13170171 0.07581495 0.06317207 0.020916985
000260 a2 da 00 3e 2c e3 80 3c 04 b6 54 bc fa dc f6 bd
       0.12583402 0.015733324 -0.012982849 -0.12053867
000270 4f 48 5c 3d 51 bd 96 be 8d 09 9a bb 39 63 92 3d
       0.053779896 -0.29441312 -0.0047008456 0.071478315
000280 c3 d6 15 be 3a ff 17 3c 2d 35 ef ba dc 0c 39 be
       -0.14632706 0.009277159 -0.00182501 -0.18071312
000290 17 f2 3c 3e db 21 f7 3d 8e f1 7b 3e d2 5b 1a be
       0.18451725 0.12067004 0.24603865 -0.15074089
0002a0 af b1 d5 3d 8a 4a 00 3e a5 d1 5a bc fc 1d a0 bd
       0.10434281 0.12528434 -0.013355647 -0.07818219
0002b0 0c d7 43 be 05 d3 0a be c6 00 af 3d c4 2c 22 3e
       -0.19125003 -0.1355706 0.085450694 0.15837389
0002c0 38 9f 90 bd 61 cf 0b 3d c2 b0 86 3d 90 01 86 bc
       -0.070616186 0.03413332 0.065766826 -0.016358167
0002d0 4c c8 62 3e e2 e8 f7 bd 4a 4d cf 3d 24 ad 44 bb
       0.2214672 -0.12104966 0.101221636 -0.0030010426
0002e0 6f 7b 2c 3c e2 b6 00 3e f7 63 29 3d 21 42 09 be
       0.010527476 0.12569764 0.0413551 -0.13404132
0002f0 4d 21 c7 3d 8a 62 e4 3d 91 84 a4 3c ee a6 8f 3d
       0.097231485 0.11151607 0.020082744 0.07014261
000300 1d ef 01 3e a9 05 fe bd a0 34 2b 3d 17 e5 41 be
       0.1268887 -0.12403423 0.041798234 -0.18935047
000310 46 60 8d 3d ec 85 f0 bd 28 b7 a7 3d 79 cd 12 3d
       0.06903128 -0.117442936 0.08189231 0.035840485
000320 63 2a b9 3d ce c7 0d ba dc 37 b8 3d 6f ce 88 3d
       0.09041288 -0.00054084964 0.08995029 0.06679999
000330 79 3e a9 3b 26 3b b4 bd c4 b6 1f 3d 7f 12 01 be
       0.005164918 -0.08800344 0.03899266 -0.12604712
000340 b3 28 81 bd 73 af 2b bd d6 29 f6 bd 3e fd 08 bd
       -0.06306591 -0.04191537 -0.12019698 -0.033444636
000350 d1 cb 25 3e 30 26 7b bd d3 44 5f 3d 86 8b 65 3c
       0.16191031 -0.061315715 0.054508995 0.014010316
000360 9a 71 d0 3c 78 09 f9 3d ce 1b 4f bd 95 a0 1e be
       0.025444794 0.12160009 -0.050563626 -0.15490945
000370 ef 1f ac bd 06 e0 1b bd 6a f3 90 3d 90 c4 47 3d
       -0.08404528 -0.038055442 0.070776775 0.04877144
000380 dd 4b 16 3e e0 9d cc bb 83 86 1d be 9c fc 5b 3d
       0.14677377 -0.006244406 -0.15383343 0.053707704
000390 32 09 a9 bc c5 5d d5 bd a3 07 f2 3d 82 b5 6f bd
       -0.020634267 -0.10418276 0.11817863 -0.05852271
0003a0 96 9d 81 3d 5a 14 c4 3d 34 2d 5e 3c ae e5 29 bc
       0.06328885 0.09574194 0.013560582 -0.010369701
0003b0 bb aa 7d bd 15 64 39 bd 3d a5 3c 3e 81 4a c2 bc
       -0.0619304 -0.04526146 0.18422408 -0.023717167
0003c0 a1 38 a1 3a f9 c0 a9 3d 4f 73 55 be 4f 4e a7 3d
       0.0012300202 0.0828876 -0.20844768 0.08169233
0003d0 65 26 ae bd 22 a2 d2 bc de b2 bd bd 20 4b bb 3d
       -0.08503417 -0.025712077 -0.09262632 0.09145188
0003e0 f0 e7 83 3d ad 43 56 3d 94 87 42 bb a3 77 a3 bd
       0.06440723 0.052310634 -0.0029682862 -0.07981803
0003f0 29 01 cc bc 81 0f f9 bd a5 38 ef bd af b7 0c 3e
       -0.024902897 -0.1216116 -0.11680726 0.13741945

actor.2.bias f4 [64]
000000 34 99 0a 3d 77 63 0f be 5e 0d 30 3c 78 b6 84 3d
       0.033837512 -0.14002787 0.0107453745 0.06480116
000010 1d cd 75 3d d4 c5 f8 bd 30 33 96 bd cb 2c bf 3d
       0.060010064 -0.12147108 -0.07333982 0.093347155
000020 1e c8 db 3d 6d 87 a0 bc ab ca 67 bb 37 2f 7d 3d
       0.10731529 -0.019595826 -0.0035368602 0.061812606
000030 96 cf 9a bd 0c 80 e9 bc 8e e9 79 bd 0f 38 b1 bc
       -0.07559125 -0.02850344 -0.06101375 -0.021633176
000040 87 c6 ea bd c9 fc 77 3d ba c5 18 3e 18 84 fe 3d
       -0.11463647 0.06054381 0.14919177 0.12427539
000050 93 43 11 3e ca 98 ab 3d d8 ef cb 3c 1d 67 0a be
       0.14185934 0.083787516 0.02489464 -0.13515897
000060 ca 74 da bd 61 39 b1 3d dd 9a 66 3d 2c e9 bf bd
       -0.10666807 0.08653522 0.056300033 -0.09370646
000070 eb 11 80 3d 0b 65 95 bd 6f 4c 9d 3d b3 96 a6 3d
       0.062534176 -0.07294663 0.07680594 0.08134212
000080 d4 d0 c1 3a d9 f0 55 bc 98 6f 0d 3e 6c ae 02 bd
       0.0014786967 -0.013057911 0.13812101 -0.031904623
000090 9d ea c0 bd de 49 bb 3d 79 06 0d be 5a 82 99 bd
       -0.09419749 0.091449484 -0.13772 -0.07495566
0000a0 e8 8a a8 3d 24 b9 3f 3d ed ca fa bd 85 9c c2 bd
       0.08229619 0.046807423 -0.12245736 -0.0950251
0000b0 d5 e1 c2 3d e0 d5 13 bd e2 e7 5c bd c2 e5 0f bd
       0.0951573 -0.03609264 -0.05393208 -0.035131223
0000c0 39 bc e1 bd 34 c0 0d 3e e1 c2 92 bd d7 50 30 bd
       -0.11022229 0.13842851 -0.071660765 -0.043045845
0000d0 bb 37 dd 3d 8b a4 90 bd 1a 7c 13 3e a2 54 72 3d
       0.10801645 -0.07062634 0.1440281 0.059162743
0000e0 1c 42 9f 3d b9 60 67 bd ec f9 ea 3d 08 69 57 3d
       0.07776281 -0.056488726 0.1147345 0.0525904
0000f0 af 33 8d bd fd 8a 87 3d 08 15 fd 3d 65 4e 4e 3d
       -0.068946235 0.06618307 0.12357527 0.05036773

actor.4.weight f4 [2, 64]
000000 03 51 9b bc ff ea bc 3d 26 9b 35 3e 38 16 d8 3d
       -0.018959528 0.092245094 0.17734966 0.10551113
000010 c2 0b ae bc cc 65 b1 3d c0 af fd 3d 18 a9 06 3e
       -0.021245841 0.08661994 0.12387037 0.13150442
000020 f5 17 8e 3d 9a b0 02 be fd 15 54 3e b5 88 8a bd
       0.06938163 -0.1276268 0.20711513 -0.06764356
000030 f8 e2 80 3e e1 8f fb 3d d4 05 30 be 27 31 55 3e
       0.25173163 0.12283302 -0.17189723 0.20819531
000040 72 7a c2 bc cb 6b ad 3e 09 31 47 be 46 da 09 be
       -0.023740027 0.33871302 -0.19452299 -0.13462171
000050 c5 0f 97 be 37 c2 10 3e fd 4b e1 bc 47 0e 8c 3d
       -0.2950422 0.14136587 -0.027502054 0.06838661
000060 32 33 e1 bd 6e 22 2c be c0 7d 2a 3e a4 77 b7 be
       -0.10996093 -0.16810009 0.16649532 -0.35833466
000070 6d 12 f8 3c 1c f7 49 3d 32 96 2f 3e 62 9b 59 be
       0.030282224 0.049307927 0.17147139 -0.2125068
000080 7f 15 9a 3d 12 6e b4 3d e6 6b 04 be d3 12 10 be
       0.07523631 0.08810057 -0.12931785 -0.14069681
000090 7c 4c 5c 3e 84 14 d7 3d 49 88 19 3e 5d 84 f6 bd
       0.21513551 0.1050196 0.14993395 -0.12036965
0000a0 2e ab 94 3c d2 3d 65 bd f3 36 1b 3e 87 e9 33 3e
       0.018148031 -0.05596716 0.1515768 0.17569552
0000b0 5e b7 92 bc 12 df 68 3d b7 03 ef bd b3 90 b8 3d
       -0.017909702 0.05685336 -0.116706304 0.09011974
0000c0 fb e5 87 be fb bd 62 be 75 ce cb 3d 91 32 22 bd
       -0.2654265 -0.22142784 0.09951488 -0.039599005
0000d0 20 1c 96 3d 33 57 f1 3d 4a 36 a0 bd f5 17 16 3d
       0.07329583 0.1178421 -0.07822855 0.03664394
0000e0 26 fc 23 3e 74 42 0a 3e 53 7e 19 be e4 6f a1 3c
       0.16014156 0.13501912 -0.14989595 0.019706674
0000f0 30 47 42 3e 51 47 d7 3d 05 9a 9d 3b f2 f6 26 be
       0.18972468 0.105116494 0.0048096203 -0.1630514
000100 ff 43 1b bb e2 e0 13 be db 1c 28 3e a7 00 94 bd
       -0.0023691652 -0.14441255 0.16417257 -0.07226687
000110 93 a9 7a bc 1e 4b ab 3c a4 cf 27 3b e1 ed ce 3d
       -0.015299219 0.020909842 0.0025605941 0.101039656
000120 48 3c 1a 3e 25 e9 c3 bd 6e 73 46 3d 4a a5 14 bd
       0.15062058 -0.09565953 0.048449926 -0.036290444
000130 2d bc 9b bd 87 5d ba 3b ce 0d c9 bd 3e b7 a8 3d
       -0.07604251 0.005687419 -0.09817086 0.08238076
000140 98 67 27 be 26 80 db 3d b1 67 02 3e 09 bf 43 3e
       -0.16348112 0.10717802 0.12734868 0.19115843
000150 db f2 cf 3d 04 66 62 bc 23 96 6d 3d cb 09 cb bd
       0.10153743 -0.013818268 0.05800451 -0.09913977
000160 82 97 0b be d8 f9 7f 3d 22 43 bd bd 92 a2 4d bd
       -0.13632014 0.06249413 -0.0924132 -0.050203867
000170 62 47 a6 3a 36 be 3b 3c 4d e2 21 3e 7f 37 60 3c
       0.0012686069 0.011458924 0.15808983 0.013685106
000180 9c 1e 01 3d 4b 17 8c bd 54 7b 27 3e 04 96 11 3e
       0.031523332 -0.0684038 0.1635564 0.14217383
000190 88 13 a0 bd 7d 1e 01 3e 64 47 d7 bd 37 88 a2 bd
       -0.07816225 0.12609287 -0.105116636 -0.07936137
0001a0 fd 85 c3 b8 c5 a2 48 3d 20 ec ec bc b6 da fb bd
       -9.323282e-05 0.048983354 -0.028921187 -0.12297575
0001b0 f3 45 a2 bd 33 8a e3 3c 5e ec 97 bd e7 3e 7c 3d
       -0.07923498 0.02777586 -0.0741813 0.061583426
0001c0 5e c9 70 bd 17 62 14 3e de 88 98 3d 4f 29 8a bc
       -0.05878579 0.14490543 0.0744798 -0.0168654
0001d0 41 c5 6b 3d 2d 92 d1 bd 20 53 08 3e 6a 31 84 3c
       0.057561163 -0.10232959 0.1331296 0.016136844
0001e0 81 0b e7 3d db d6 bb bd 76 be aa 3d 45 ed 08 3d
       0.11281491 -0.0917184 0.08337109 0.033429403
0001f0 69 36 f7 bd f4 e9 73 3d ff 8f ca 3d f7 16 46 3b
       -0.12070925 0.059549287 0.09890746 0.003022609

actor.4.bias f4 [2]
000000 4a 99 43 bd bc 23 d8 3d
       -0.04775361 0.10553691

critic.0.weight f4 [64, 25]
000000 58 a2 8f be 17 4b 7c be 09 09 b9 3d 87 84 46 bd
       -0.28053546 -0.2463802 0.090349264 -0.04846623
000010 36 3c 70 3d ea 93 c5 3e 27 f8 0c bd fd d1 f4 be
       0.05865117 0.38589412 -0.034416344 -0.47816458
000020 0d 02 7e be 4d 54 db be 93 2c a2 be 6d f0 3d bd
       -0.2480547 -0.42837754 -0.31674632 -0.046371866
000030 06 df 9d 3d 53 b2 84 3e c5 63 02 3f e1 c6 61 3d
       0.07708554 0.259173 0.50933486 0.055121306
000040 0c 16 0e 3e b9 65 0e 3e c9 73 9d 3c 76 14 10 3e
       0.13875598 0.13905992 0.01922025 0.14070305
000050 41 d7 0a 3e 54 99 09 3d 94 7e 3b 3d 70 af 66 be
       0.13558675 0.03359349 0.04577501 -0.22527862
000060 a0 d4 1a be 05 ad 81 bd ab 2a 96 3e 87 6b b5 bc
       -0.15120173 -0.06331829 0.29329428 -0.022146
000070 fb 87 86 bc 3f 5a 9f be 4c 44 1f bf b3 ef 31 be
       -0.016422262 -0.3112354 -0.6221359 -0.17376594
000080 43 90 a2 3e 4c ad af 3e 1d ea f8 3e 6d e2 9d 3e
       0.31750688 0.34311903 0.48616114 0.30836812
000090 ba bc ba 3e 2e 1b 4a 3e ea 69 44 bd 95 76 73 be
       0.36472112 0.1973693 -0.04795257 -0.23775704
0000a0 aa f9 15 be e3 85 2b be a0 69 f0 bb 9a 39 28 be
       -0.1464602 -0.16750292 -0.00733681 -0.16428223
0000b0 a1 f6 07 3e 4c 30 ac 3d dc 09 b4 3a 48 d3 14 3e
       0.13277675 0.084076494 0.0013735848 0.14533722
0000c0 fd f3 2e 3e 9b 89 0c 3d 9d c0 52 bd c7 20 89 be
       0.17085262 0.03431092 -0.05145322 -0.2678282
0000d0 4b 40 7f bd 98 f4 b8 bb 2d b6 de bd 39 45 fe 39
       -0.062317174 -0.005644392 -0.10874591 0.0004849823
0000e0 3f 8f c6 bd 43 ba 26 be ae d3 97 be 4e 18 05 be
       -0.09695291 -0.1628199 -0.29653686 -0.12997553
0000f0 9d 5b a7 bd 08 32 55 3d 1a 5f ad 3e a9 7d df 3e
       -0.08171771 0.052049667 0.3386162 0.4365056
000100 03 5e 87 3e 2e a7 ef 3d 53 71 32 3e 5b dc 59 bb
       0.26438913 0.11701809 0.17426042 -0.0033242914
000110 73 95 25 bd ba ee 24 3e 92 ad 3d bc 91 f2 ec bc
       -0.04042573 0.16106692 -0.011577027 -0.028924258
000120 f9 34 55 be 80 a3 4c bc d9 c5 61 bd bf 87 98 be
       -0.20820989 -0.012490153 -0.055120323 -0.29791066
000130 04 9b 9d be ed fc 70 be a5 3d c6 be cd 21 01 bd
       -0.3078233 -0.23533984 -0.38718906 -0.031526376
000140 89 85 62 3e 3a a9 b8 3d 46 78 e3 bd ab 1a 2a bd
       0.22121252 0.090166524 -0.11106925 -0.04152934
000150 50 77 a2 3d da ee e2 bd 1e 26 8c 3e 72 be 81 3e
       0.07932913 -0.110807136 0.2737283 0.2534061
000160 9b 68 e5 3e ab e0 1a 3f d2 9b 4a bd 79 1f 05 3e
       0.4480637 0.60499066 -0.049465008 0.13000287
000170 84 10 41 3e 4e b8 e4 bd 63 3e 4d 3e 08 d1 0c 3e
       0.18853956 -0.11167966 0.2004333 0.13751614
000180 e0 b6 5e bd 29 86 20 3e 8c 35 2b be f9 2f 4b 3c
       -0.054373622 0.15676178 -0.16719645 0.012401574
000190 44 0b 5b be 58 22 51 be a7 0c 4f 3e fe 2f 9d bd
       -0.21391016 -0.20423257 0.2021967 -0.076751694
0001a0 1c 0b bf ba 73 e5 c8 3e 16 35 b4 be fb d4 6e be
       -0.0014575454 0.39237556 -0.3519675 -0.23323433
0001b0 ed ad 06 bf af 6a d9 be ab c7 bc be 63 ea 02 bd
       -0.5260914 -0.42464206 -0.36871085 -0.03196181
0001c0 84 80 27 3e c9 fb 16 3f 6a 0f 84 3f 84 e2 29 be
       0.16357619 0.58977944 1.0317204 -0.16590315
0001d0 9f e8 c4 bc ba c3 1b bc d1 5a 1b be 17 bb 50 3d
       -0.024036704 -0.009507114 -0.15171362 0.050959673
0001e0 08 50 7f bd 24 66 f8 3d fb 5a 60 bd 70 f1 d9 3c
       -0.062332183 0.12128857 -0.054774266 0.026604384
0001f0 08 5a 9a bd 8c d3 03 3e 5b f6 92 3e cf 88 21 be
       -0.07536703 0.12873667 0.2870358 -0.15774845
000200 19 6d c3 be fe c3 e5 be bd 2c ae be 1c 37 8f 3e
       -0.38169172 -0.44876093 -0.34018508 0.27971733
000210 7d 38 6c 3e cb 6e 18 3f 3c d9 25 3e 26 11 b0 3e
       0.23068424 0.59544057 0.1619615 0.34388083
000220 9f 10 9c 3c ba eb e2 3d 87 59 bd bc dc 51 4f be
       0.019050894 0.110801175 -0.023113979 -0.2024607
000230 3d 1f 44 be 6f d8 a9 be 69 c5 9b bd 6d b5 02 be
       -0.19152541 -0.33172938 -0.076060124 -0.12764521
000240 0b 8e b0 bd 79 af d2 3d 1d a9 54 3b 66 38 60 3e
       -0.086208425 0.10287375 0.0032449432 0.21896514
000250 02 e4 7f 3e 9f 73 62 bd fc c5 20 be b5 71 cd 3e
       0.24989322 -0.055286046 -0.15700525 0.40125814
000260 03 62 4f 3c 8b 4b 4f be b3 27 0e bf 3b 2b b6 ba
       0.012657645 -0.20243661 -0.55529326 -0.0013898382
000270 0d ea 25 3e 87 d8 b6 3e a0 ef aa 3e 48 41 95 3e
       0.16202565 0.35712072 0.33385944 0.29151368
000280 98 46 87 3e 4e ee 5f be 8f f6 df bd f8 3f 23 be
       0.26421046 -0.2186825 -0.10935699 -0.15942371
000290 d5 e7 34 bf 8f 3f 53 3e d7 b8 55 bc 52 35 a3 3d
       -0.7066625 0.20629714 -0.0130445575 0.079691544
0002a0 54 ea 21 bd dc e9 a5 3d 8e f3 bc 3d 66 e1 10 3d
       -0.039530113 0.08101246 0.09226142 0.035371207
0002b0 32 f7 a4 3d d7 cb 51 be f1 68 3d bd 0f ae 2a 3e
       0.08054961 -0.20487915 -0.046242658 0.1666796
0002c0 c0 ad 98 be 7e 94 2c 3d 83 a4 3c be 95 58 2d 3e
       -0.2982006 0.0421338 -0.18422131 0.16928323
0002d0 50 aa 18 3b ae 13 9d be ae 2a 04 bf 4e d5 1e bf
       0.0023294874 -0.30679077 -0.51627624 -0.6204423
0002e0 1e c5 c7 be 99 92 97 be 9d 35 15 3e 74 57 8c 3e
       -0.39017576 -0.29604033 0.14571233 0.2741047
0002f0 f4 ec 10 3f 55 21 d4 3e c1 07 20 3e 33 f9 f1 3d
       0.5661156 0.4143168 0.15627958 0.11815109
000300 0e 4d 71 be 73 28 5d be d4 86 67 be 2e 9b b0 3c
       -0.2356455 -0.21597461 -0.22610027 0.02155837
000310 fd 99 0e 3e 60 8c c0 3d 63 80 c8 3b a6 e0 b1 3d
       0.1392593 0.094017744 0.0061188205 0.086854264
000320 e6 81 4f be ee b3 25 3e 12 86 37 be 14 12 0e bf
       -0.20264396 0.16181919 -0.17922238 -0.55496335
000330 9e be 35 bf d7 7c a3 be 8e 5d c3 bb d0 68 f9 3e
       -0.70993984 -0.31931183 -0.0059620803 0.48712778
000340 6e ef d9 3e 91 f2 4a 3e 29 a9 c0 3d 77 c5 a0 3e
       0.42565483 0.19819094 0.09407265 0.31400654
000350 5f 54 3c 3e 79 12 6d 3e 1a bf de 3c b0 d2 50 3e
       0.1839156 0.23151578 0.027190734 0.20392871
000360 d0 f2 57 3d 78 97 39 3e 39 ff 8c bd ac 9e 5c 3d
       0.0527218 0.18124187 -0.06884617 0.05386226
000370 04 de d4 3d c2 bc 9e 3e b8 13 d0 bd b1 26 2e be
       0.103939086 0.31003386 -0.10160011 -0.17006947
000380 82 73 9a be f7 d4 00 be c5 51 92 3e 82 d8 85 be
       -0.3016625 -0.1258124 0.2857801 -0.26141745
000390 68 2a ea 3c 68 96 1d be 0b 9d 16 bf f7 6a 16 3d
       0.028584674 -0.15389407 -0.5883338 0.036723103
0003a0 5b 63 23 3f f4 47 36 3f 80 4d d7 3e 5d 4f 01 3f
       0.6382348 0.7120354 0.42051315 0.50511724
0003b0 0f 09 d3 3e cf 79 4e 3c 70 0f 22 be bd 84 f3 be
       0.4121785 0.012602284 -0.15826201 -0.4756221
0003c0 98 93 6c 3e be fb 58 3e 3e f7 a3 3d 08 cd 14 bd
       0.23103178 0.21189782 0.08006142 -0.036328346
0003d0 84 05 3d bd a3 af e1 3d 93 e8 84 bd 81 65 11 3e
       -0.04614784 0.11019828 -0.064896725 0.14198877
0003e0 20 2f ca 3d 03 1a 98 be 7f f1 93 bf 36 bb 47 bd
       0.0987227 -0.29707345 -1.1558074 -0.048762523
0003f0 8c ae fb 3e 42 e5 2f 3e 4e 00 a2 3e b2 84 b6 be
       0.49156606 0.17177299 0.31640857 -0.35648113

critic.0.bias f4 [64]
000000 0a 8d 80 3c 43 10 cd be e1 62 71 bc 33 f1 9d be
       0.015692253 -0.4005147 -0.014733047 -0.30848083
000010 82 37 4b 3e 46 6b ff bd 68 6f 8a 3b b7 b1 d7 3d
       0.19845393 -0.12471633 0.0042247064 0.10531943
000020 4a 17 87 be 85 dd e4 be c2 d0 c3 be 33 76 e2 bd
       -0.26384956 -0.44700256 -0.38245207 -0.11057701
000030 0f 8e 1c bf 57 f5 aa 3e c3 7a 9a be 04 af c5 be
       -0.61154264 0.33390304 -0.30171785 -0.3861009
000040 fc f3 fc 3e 82 24 d2 3e 3f 94 61 3d 2f 23 03 3f
       0.49404895 0.41043478 0.05507302 0.5122556
000050 73 0b a4 be c5 0c c4 3e a1 c4 e7 bd 5c 9d b1 be
       -0.32039985 0.38290992 -0.11316801 -0.34690368
000060 df 8e b3 3e 3d 6e d3 bc 12 7f 43 bd c3 8b b6 3e
       0.3506994 -0.025809402 -0.047728606 0.35653505
000070 83 47 93 3e 36 01 01 bf 81 ef 84 3e de 85 04 bf
       0.28765497 -0.5039247 0.25963977 -0.51766765
000080 46 01 90 bd 64 32 b0 be aa 3a f0 be 92 be 28 3f
       -0.07031493 -0.34413445 -0.46919757 0.6591579
000090 33 23 2f be 85 66 cb be 94 08 fd bd da 44 7a 3e
       -0.17103271 -0.39726654 -0.12355152 0.24440327
0000a0 21 4a 00 bf 05 ef 07 3f bf 6d 9b 3e b7 26 9a be
       -0.5011311 0.5309909 0.30357167 -0.30107662
0000b0 2e d2 63 3d 85 90 73 be 1a 1e bd be 7b a8 51 3e
       0.055620365 -0.23785599 -0.36937028 0.20474426
0000c0 54 ff fe be 3d 51 a9 bc 08 9b c9 bd a9 97 36 be
       -0.49804175 -0.02066862 -0.09844023 -0.17831291
0000d0 a4 87 c1 be 6b ab 45 3e 7d 5b f0 be 0e 68 fa be
       -0.37798798 0.19303672 -0.469448 -0.48907512
0000e0 ca 32 cd bd 9d 5f 88 be a7 0a 0d 3e e3 ca 9f 3e
       -0.10019453 -0.26635447 0.13773595 0.31209478
0000f0 91 08 39 be 1b d9 f2 be 1e 36 0b 3d 85 4f a9 3e
       -0.18069674 -0.47431263 0.033987157 0.3306848

critic.2.weight f4 [64, 64]
000000 64 c3 e2 bd d1 c8 8d 3d 6c 22 0a be 58 28 a1 3d
       -0.11072424 0.06923068 -0.13489693 0.07869023
000010 13 3a 14 be bf f6 a9 bd ad b8 93 3d 72 58 56 bd
       -0.14475279 -0.08299016 0.072129585 -0.05233044
000020 49 5c 06 3e 06 8e 80 3b e9 c7 50 bc 98 cb 95 bd
       0.13121141 0.0039231805 -0.012742975 -0.07314223
000030 c8 1e 04 bc 43 6a 9e bb 80 ad 4a 3d 4f 63 26 be
       -0.008063979 -0.0048344447 0.04948187 -0.1624882
000040 76 a3 84 bd 73 1c f3 3d b6 75 e0 3d c1 a1 ea 3c
       -0.0647649 0.11870661 0.109599516 0.028641583
000050 24 d8 48 3d f7 be 83 bd 0d 6a e3 3d 15 b6 c1 bc
       0.049034253 -0.06432908 0.11104212 -0.023646394
000060 ec 05 f6 3c 98 af 35 bc 07 46 88 bd 45 77 88 bc
       0.03003212 -0.011089228 -0.06653982 -0.016658435
000070 41 5a b1 3d 1d 09 e0 3c f2 5d cd 3d 29 5d 37 bc
       0.08659793 0.027348096 0.10027684 -0.011191645
000080 27 5d 7f 3b 16 05 0c bd 7c dd 3e bd d3 f9 1b be
       0.0038965435 -0.034184538 -0.046597943 -0.15232019
000090 b4 ac bf bd 27 76 eb 3c 05 53 ca bd f5 57 11 3c
       -0.093591124 0.028742863 -0.09879116 0.008871068
0000a0 6e fd 4c 3d 70 70 9d bd d5 1c 17 3d a7 4d c6 bd
       0.050046377 -0.076874614 0.03689273 -0.0968278
0000b0 25 83 01 3d 69 6b 39 3e 1a 4e 5a bd 85 e5 16 3c
       0.03161921 0.1810738 -0.05329714 0.009209995
0000c0 4a c4 7a bd 62 b6 9e 3d 2e 4f bc 3d de aa 09 3d
       -0.061222352 0.077496305 0.0919479 0.033610217
0000d0 e9 6e 06 3d 88 b5 0b 3d ef e3 9a bd 11 40 5b bd
       0.032820616 0.03410867 -0.07563006 -0.053527895
0000e0 49 ec 62 3d 4a 26 e2 3d ea 32 1c bd a6 3d 8c 3d
       0.05540112 0.11042459 -0.038134493 0.06847696
0000f0 c7 aa a8 bd f9 63 3f 3d 9e bf 6d bd 94 f4 3a 3c
       -0.08235698 0.0467262 -0.05804407 0.011410851
000100 f5 76 23 3e 61 f4 4b 3c 2b 8d 42 3e 08 74 cc 3e
       0.15963347 0.012448401 0.18999164 0.39932275
000110 81 7c e3 3d b6 ae 0c 3e a1 cb da 3e 1e 6e 86 3c
       0.111077316 0.13738522 0.42733482 0.01640993
000120 8d 32 a1 3f 93 f6 dd 3c d0 db 90 be 4e 72 93 be
       1.2593552 0.027095115 -0.28292704 -0.28798145
000130 84 53 13 3e 27 43 d8 bc 9b 31 9c bf c0 73 70 bf
       0.14387327 -0.026399208 -1.2202638 -0.9392662
000140 8b 5f 67 3e 46 36 82 bd b8 ff c7 3c 8f ea ac 3e
       0.2259504 -0.06358008 0.024413928 0.33772704
000150 01 ef 87 be e4 df 0f bf 02 65 2b bf e3 16 96 be
       -0.26549533 -0.56201005 -0.66951 -0.29314336
000160 5f 1d ab bc ec 3a 21 3e 60 3f 60 3f cb b8 25 be
       -0.020888029 0.15745133 0.875967 -0.16183774
000170 48 6e 8a 3e a3 bf 10 be 86 2f 0d bd 85 4c 02 bf
       0.27037263 -0.14135604 -0.03446915 -0.5089801
000180 a9 1a b4 bf 61 14 61 be ae e3 45 be 5f 8f a9 bd
       -1.4070636 -0.2198043 -0.19325134 -0.08279299
000190 68 0f 04 3f ba f6 4b bd 15 74 cd bf 1f 45 2c 3e
       0.5158601 -0.049795844 -1.605105 0.16823243
0001a0 f0 27 67 3e dc 8c 53 3e db f5 5d 3e 9b eb f4 3e
       0.22573829 0.20659202 0.21675818 0.47836003
0001b0 c1 cd 6b 3e a3 ca 09 bf 52 9c 22 be bd 44 b3 bd
       0.23027708 -0.53824824 -0.15879944 -0.08753345
0001c0 37 74 a7 be 4f 6e 35 bd 22 05 41 bc 16 eb c9 be
       -0.32705852 -0.04429465 -0.011781009 -0.3943717
0001d0 52 8a 4c 3e 22 37 a2 be d4 38 b5 bf d2 c4 a0 be
       0.1997464 -0.31682688 -1.4157968 -0.31400162
0001e0 67 71 09 bf 8b 65 0d 3e f5 24 b8 bd ab 42 0d 3f
       -0.53688663 0.13808267 -0.08991424 0.5517985
0001f0 10 3e 5e 3e 00 b6 1f bd f8 bb 42 3f 38 00 b0 3d
       0.21703362 -0.038991928 0.7606807 0.08593792
000200 be 0c 77 bd 62 2e 14 be 65 23 bc 3c 0c b1 6b bd
       -0.060314886 -0.14470819 0.022966096 -0.057541892
000210 2b e1 71 3c 08 79 dc 3d 2b 32 20 bd 79 45 e0 bd
       0.014763157 0.107652724 -0.039110344 -0.10950751
000220 1e 75 65 be 67 e7 29 be ff 5c 3b bd f3 4f 46 bd
       -0.22407958 -0.16592179 -0.045742985 -0.04841609
000230 fc c6 a7 bd 06 40 9c 3d be 41 11 bd 1a 22 64 3d
       -0.0819225 0.07629399 -0.035463087 0.055696584
000240 35 58 23 3d 19 27 df bd 7c 17 8d bc 35 c1 41 bd
       0.039879043 -0.10896129 -0.017223112 -0.047303397
000250 62 3a c2 3d 26 f9 cd 3c 85 22 30 3d 75 3c 0a be
       0.09483792 0.025143217 0.04300167 -0.13499625
000260 d5 78 d1 3c 05 2f af bd 19 68 14 bd 56 c4 cb 3d
       0.025570313 -0.0855389 -0.036232088 0.099495575
000270 7a 52 ef 3d 51 83 ff 3c f3 10 00 bc e1 b9 09 be
       0.11685653 0.031190546 -0.007816541 -0.13449813
000280 b7 43 1a be 39 2d 2b 3c 33 27 91 bd 25 18 6f bd
       -0.15064894 0.010447794 -0.07087555 -0.058372635
000290 e9 e8 6b 3e ab 09 2d bd da 93 25 bd 5f 1a 91 bc
       0.23038067 -0.04224555 -0.040424205 -0.01771277
0002a0 d2 e6 9e 3c 10 a7 fd 3d af a7 03 3d a5 9c 17 bd
       0.019397173 0.1238538 0.032142337 -0.037014622
0002b0 a0 79 ac bd 64 fb 7b 3d 02 46 87 bd 48 0f 0a 3e
       -0.08421636 0.06151904 -0.0660515 0.13482392
0002c0 fd 33 2d 3e a2 59 a3 bd 54 48 11 3e 25 61 01 3e
       0.16914363 -0.079760805 0.14187747 0.12634714
0002d0 68 ea 05 be 77 04 84 bd ee da cf 3d db b5 a1 3d
       -0.130777 -0.06446164 0.101491794 0.07896014
0002e0 bb 5e af bd ce 3a 08 bc f3 48 b3 3d 85 42 1d 3d
       -0.0856299 -0.008314801 0.08754148 0.038393516
0002f0 34 43 0b bd f9 26 1f be 1d e0 0e be 9d 19 11 be
       -0.033999637 -0.1554221 -0.1395268 -0.14169927
000300 07 71 80 be 15 ba b5 3e e6 9f 64 be f6 dd 38 3e
       -0.25086233 0.35493532 -0.22326621 0.18053421
000310 14 f5 a0 bd 73 61 1b 3e 3c 9d 1a 3f b3 9f b3 be
       -0.07859245 0.15173893 0.6039617 -0.35082778
000320 ae 87 30 3f b2 dc 9c 3d d4 92 2e bf b7 0f 92 be
       0.6895703 0.07659282 -0.6819279 -0.28527614
000330 55 85 be 3e 26 62 9b be 8f 97 8c bf 0e 54 35 bf
       0.372111 -0.3034832 -1.0983752 -0.7083138
000340 d6 cb e9 3e 46 cd 5b be 0e 36 63 be cd ae d3 bc
       0.45663327 -0.21465024 -0.22188589 -0.025840187
000350 c7 63 42 3d 6b 8f d6 be da 8d 73 be 39 d7 3b bd
       0.047458436 -0.41906294 -0.23784581 -0.04585955
000360 c5 97 67 bd a9 a1 81 3d e3 8d 59 3f a9 0e 05 be
       -0.056541223 0.06329662 0.84982127 -0.12993874
000370 12 48 e9 bd d2 3e 2f 3e 19 01 3f 3d 68 ba 32 be
       -0.113906994 0.17113808 0.046631906 -0.17453921
000380 03 33 67 bf de e6 e6 bd f7 bc 87 be bf 11 8c 3c
       -0.9031221 -0.11274503 -0.26511356 0.017098306
000390 1f 59 d1 3e ca 5c d7 3c 36 88 30 bf b0 ce 62 be
       0.40888306 0.026289362 -0.6895784 -0.22149158
0003a0 1d 01 b9 3e 8b 17 83 be 1d c0 42 3d 87 b0 a8 3e
       0.36133662 -0.256039 0.047546495 0.3294718
0003b0 8c fe 80 bc d6 83 08 be a9 9f 6f be 06 a6 50 3c
       -0.015746377 -0.13331541 -0.2340075 0.012734896
0003c0 39 40 8b 3e ee 15 01 3f 1b 03 4e 3e 15 15 47 3e
       0.27197435 0.5042409 0.20118372 0.19441636
0003d0 8b 08 d0 3e 0b 1e 26 be 2c 59 28 bf 87 2f 55 be
       0.40631518 -0.16222398 -0.65761065 -0.20818911
0003e0 4b d6 d6 be 8c 62 f2 3c d2 db 5d 3c 7d c4 86 3e
       -0.41960368 0.029588006 0.013541179 0.26321784
0003f0 69 c9 79 3d c3 56 e1 bc bd 05 13 3f 3d cf 33 be
       0.060983095 -0.027507192 0.5743063 -0.17559524

critic.2.bias f4 [64]
000000 37 3f eb 3d 91 79 a6 3c 26 6f fe 3d 47 48 9b 3e
       0.11486667 0.02032164 0.12423544 0.3032858
000010 7f ed 26 be ea 03 33 3c dc 1c b6 3c 2a b2 a1 bd
       -0.16301535 0.010926226 0.022230558 -0.0789531
000020 fe f4 ae bd 9c 3b 0d bd ed e5 f8 bd 90 38 75 bc
       -0.08542822 -0.034480676 -0.1215323 -0.014967099
000030 e8 a5 53 3e 1c 64 90 3d 76 94 1e 3d 88 6c ae bd
       0.20668757 0.07050344 0.038715802 -0.085167944
000040 57 03 f5 be 74 21 06 3e 85 12 f0 bc 4a 8f 6a 3d
       -0.4785411 0.13098699 -0.029305706 0.057265557
000050 6b b9 61 3e 30 8d c9 bd 92 e0 61 3e c8 58 17 be
       0.22043388 -0.098413825 0.22058323 -0.14779961
000060 08 a2 4f 3d 37 78 c6 3c c0 5c af bd a6 5f e3 bd
       0.050691634 0.024227245 -0.085626125 -0.11102228
000070 c0 67 33 3e 44 7d b2 bd 77 05 ea bc 92 27 43 bd
       0.17520046 -0.08715299 -0.028567059 -0.04764516
000080 ec b2 f8 3d ba 5f 0b 3e dc fb 75 3d 25 c6 05 bd
       0.12143502 0.13610736 0.060054645 -0.03265967
000090 f1 57 f2 bd 21 78 41 3d 3e 02 c5 bd 56 e6 32 3c
       -0.1183318 0.047233704 -0.09619568 0.010919174
0000a0 19 13 f3 3e f6 05 37 3d d2 16 cc 3d 4f fb 36 bc
       0.47475508 0.04468342 0.0996529 -0.011168315
0000b0 be 26 0a bd 0e c4 e1 3d a4 d8 5e 3a 6d 5b de bd
       -0.033728354 0.110237226 0.000850091 -0.10857282
0000c0 f2 28 5a bc 3f 3d b1 3d b4 9e 6c be a2 e4 cf 3d
       -0.013315426 0.0865426 -0.23107415 0.1015103
0000d0 65 25 97 3d 50 8b 49 be 7d 4c e2 3d c6 ed 97 3d
       0.07380179 -0.1968205 0.11049745 0.074183986
0000e0 cb b2 3c be 6c d7 52 bd b3 08 68 bd aa ab a0 bd
       -0.18427579 -0.051474974 -0.05664892 -0.07845242
0000f0 aa 5d 48 3d 63 d8 df 3d d5 67 28 be 74 31 0b be
       0.04891745 0.10929944 -0.16445859 -0.13593084

critic.4.weight f4 [1, 64]
000000 cc 83 4c bb c6 a4 af bd 57 44 f9 bb 31 54 d9 bd
       -0.0031206487 -0.0857635 -0.0076070237 -0.10611761
000010 a5 41 26 b9 85 c8 0c 3b 72 02 50 bb 07 13 d1 3a
       -0.00015855448 0.0021481824 -0.0031739739 0.0015951105
000020 63 8e ec 3b 9a 7c a5 3a 81 95 d1 3e 35 93 c7 3b
       0.0072191223 0.0012625635 0.40934375 0.0060905465
000030 98 6d 41 bd 6d 17 dc bb 23 fe af 3b 73 48 15 bc
       -0.047223657 -0.0067166598 0.0053708716 -0.0091115115
000040 18 0a 08 3f c7 ff 71 bb 3d 33 0e 3b a6 2e e4 bd
       0.531404 -0.0036926137 0.002169802 -0.1114171
000050 86 01 b8 bd f5 e9 53 bc 21 ed 02 3e ff 32 ba bd
       -0.089846656 -0.012934198 0.1278577 -0.09091758
000060 27 9b 2d bb 12 12 e7 3a d7 cb 60 bb 72 f1 30 bb
       -0.0026490183 0.0017629287 -0.0034301186 -0.0026999381
000070 a7 fa 11 bc ce ab af bb 18 c7 de 3a e3 0e 05 3c
       -0.008909858 -0.005361057 0.001699659 0.008121225
000080 fc 30 b3 be 6d 98 40 3a aa 18 a4 bb 26 f2 a1 bd
       -0.3499831 0.0007346932 -0.005007823 -0.07907514
000090 16 13 00 3b 54 46 99 bd bd dd 9a bc e2 09 9e 3b
       0.0019542626 -0.07484117 -0.018904561 0.0048229555
0000a0 bb ec 62 be 6f 36 8a 3b c9 5d 2a bb 0b 35 17 3c
       -0.22160618 0.004217915 -0.0025995842 0.009228955
0000b0 94 6a 0e 3d d7 63 ba 3a 34 de db 39 11 31 a2 3b
       0.03476961 0.0014220428 0.0004193649 0.004949697
0000c0 de 93 5f ba b9 0a 11 bb a9 2d 6e bd f1 25 81 3a
       -0.0008528809 -0.0022131635 -0.058149014 0.0009853226
0000d0 66 bb f7 3b 38 70 cd 3d 6c fb 28 3c 8c cd 4c 3a
       0.0075601814 0.1003117 0.01031385 0.00078126113
0000e0 ba dd 7d 3b 24 f5 17 bb b1 27 d3 3b 8f 98 46 3c
       0.0038736896 -0.0023186887 0.0064439406 0.012121334
0000f0 d0 f0 84 bb 3f 51 39 b9 70 82 00 3d 60 19 52 3e
       -0.0040570274 -0.00017673241 0.031374395 0.20517492
